…
  'precision', 'predicted', average, warn_for)
/conda/envs/rapids/lib/python3.6/site-packages/sklearn/metrics/classification.py:1437: UndefinedMetricWarning: F-score is ill-defined and being set to 0.0 due to no predicted samples.
  'precision', 'predicted', average, warn_for)
/conda/envs/rapids/lib/python3.6/site-packages/sklearn/metrics/classification.py:1437: UndefinedMetricWarning: F-score is ill-defined and being set to 0.0 due to no predicted samples.
  'precision', 'predicted', average, warn_for)
[Parallel(n_jobs=1)]: Done  80 out of  80 | elapsed: 121.7min finished

max_pooling1d_326 (MaxPoolin (None, 197, 32)           0         
_________________________________________________________________
batch_normalization_245 (Bat (None, 197, 32)           128       
_________________________________________________________________
conv1d_327 (Conv1D)          (None, 187, 64)           22592     
_________________________________________________________________
max_pooling1d_327 (MaxPoolin (None, 47, 64)            0         
_________________________________________________________________
batch_normalization_246 (Bat (None, 47, 64)            256       
_________________________________________________________________
conv1d_328 (Conv1D)          (None, 37, 128)           90240     
_________________________________________________________________
max_pooling1d_328 (MaxPoolin (None, 9, 128)            0         
_________________________________________________________________
flatten_82 (Flatten)         (None, 1152)              0         
_________________________________________________________________
dropout_163 (Dropout)        (None, 1152)              0         
_________________________________________________________________
dense_244 (Dense)            (None, 64)                73792     
_________________________________________________________________
dropout_164 (Dropout)        (None, 64)                0         
_________________________________________________________________
dense_245 (Dense)            (None, 64)                4160      
_________________________________________________________________
dense_246 (Dense)            (None, 1)                 65        
=================================================================
Total params: 197,329
Trainable params: 197,105
Non-trainable params: 224
_________________________________________________________________
None
Accuracy: 0.9929824561403509
F1 score: 0.33333333333333337
Recall: 0.2
Precision: 1.0
Cohens Kappa : 0.33137829912023453
ROC AUC Score: 0.6

 clasification report:
               precision    recall  f1-score   support
…
